NOTE : Remove Dropout, just try Batch-normalization
	 : Ref - https://arxiv.org/abs/1801.05134


model_no =  19
batch_size =  128
learning_rate =  0.0003
num_epochs =  150
num_iters =  8700
inspect_size =  10
num_samples =  286
best_train_loss =  0.9048709869384766
best_train_acc =  100.0
best_valid_loss =  1.4783427715301514
best_valid_acc =  64.0625
Model(
  (cnn1): Conv2d(2, 8, kernel_size=[3, 3], stride=[1, 1], padding=[1, 1])
  (relu1): ReLU()
  (bn1): BatchNorm2d(8, eps=1e-05, momentum=0.1, affine=True, track_running_stats=True)
  (maxpool1): MaxPool2d(kernel_size=[2, 2], stride=[2, 2], padding=[0, 0], dilation=1, ceil_mode=False)
  (cnn2): Conv2d(8, 16, kernel_size=[3, 3], stride=[1, 1], padding=[1, 1])
  (relu2): ReLU()
  (bn2): BatchNorm2d(16, eps=1e-05, momentum=0.1, affine=True, track_running_stats=True)
  (maxpool2): MaxPool2d(kernel_size=[2, 2], stride=[2, 2], padding=[0, 0], dilation=1, ceil_mode=False)
  (cnn3): Conv2d(16, 32, kernel_size=[3, 3], stride=[1, 1], padding=[1, 1])
  (relu3): ReLU()
  (bn3): BatchNorm2d(32, eps=1e-05, momentum=0.1, affine=True, track_running_stats=True)
  (maxpool3): MaxPool2d(kernel_size=[2, 2], stride=[2, 2], padding=[0, 0], dilation=1, ceil_mode=False)
  (cnn4): Conv2d(32, 64, kernel_size=[3, 3], stride=[1, 1], padding=[1, 1])
  (relu4): ReLU()
  (bn4): BatchNorm2d(64, eps=1e-05, momentum=0.1, affine=True, track_running_stats=True)
  (maxpool4): MaxPool2d(kernel_size=[1, 2], stride=[1, 2], padding=[0, 0], dilation=1, ceil_mode=False)
  (cnn5): Conv2d(64, 64, kernel_size=[3, 3], stride=[1, 1], padding=[1, 1])
  (relu5): ReLU()
  (bn5): BatchNorm2d(64, eps=1e-05, momentum=0.1, affine=True, track_running_stats=True)
  (maxpool5): MaxPool2d(kernel_size=[1, 2], stride=[1, 2], padding=[0, 0], dilation=1, ceil_mode=False)
  (flatten): Flatten()
  (linear1): Linear(in_features=13760, out_features=1024, bias=True)
  (relu6): ReLU()
  (bn6): BatchNorm1d(1024, eps=1e-05, momentum=0.1, affine=True, track_running_stats=True)
  (linear2): Linear(in_features=1024, out_features=128, bias=True)
  (relu7): ReLU()
  (bn7): BatchNorm1d(128, eps=1e-05, momentum=0.1, affine=True, track_running_stats=True)
  (linear3): Linear(in_features=128, out_features=5, bias=True)
  (softmax): Softmax(dim=1)
)
Adam (
Parameter Group 0
    amsgrad: False
    betas: (0.9, 0.999)
    eps: 1e-08
    lr: 0.0003
    weight_decay: 0
)
CrossEntropyLoss()
​





====================================================================================================================
Epoch :   0
100% 58/58 [00:19<00:00, 3.90it/s]
Iteration : 10/2869 [ 0%] 
…
