NOTE : Need bigger batch size if using batch-normalization


model_no =  18
batch_size =  128
learning_rate =  0.0003
num_epochs =  50
num_iters =  2900
inspect_size =  10
num_samples =  286
best_train_loss =  1.3181654214859009
best_train_acc =  38.775510204081634
best_valid_loss =  1.4699352979660034
best_valid_acc =  53.125
Model(
  (cnn1): Conv2d(2, 8, kernel_size=[3, 3], stride=[1, 1], padding=[1, 1])
  (relu1): ReLU()
  (bn1): BatchNorm2d(8, eps=1e-05, momentum=0.1, affine=True, track_running_stats=True)
  (maxpool1): MaxPool2d(kernel_size=[2, 2], stride=[2, 2], padding=[0, 0], dilation=1, ceil_mode=False)
  (dropout1): Dropout2d(p=0.3, inplace=False)
  (cnn2): Conv2d(8, 16, kernel_size=[3, 3], stride=[1, 1], padding=[1, 1])
  (relu2): ReLU()
  (bn2): BatchNorm2d(16, eps=1e-05, momentum=0.1, affine=True, track_running_stats=True)
  (maxpool2): MaxPool2d(kernel_size=[2, 2], stride=[2, 2], padding=[0, 0], dilation=1, ceil_mode=False)
  (dropout2): Dropout2d(p=0.2, inplace=False)
  (cnn3): Conv2d(16, 32, kernel_size=[3, 3], stride=[1, 1], padding=[1, 1])
  (relu3): ReLU()
  (bn3): BatchNorm2d(32, eps=1e-05, momentum=0.1, affine=True, track_running_stats=True)
  (maxpool3): MaxPool2d(kernel_size=[2, 2], stride=[2, 2], padding=[0, 0], dilation=1, ceil_mode=False)
  (dropout3): Dropout2d(p=0.2, inplace=False)
  (cnn4): Conv2d(32, 64, kernel_size=[3, 3], stride=[1, 1], padding=[1, 1])
  (relu4): ReLU()
  (bn4): BatchNorm2d(64, eps=1e-05, momentum=0.1, affine=True, track_running_stats=True)
  (maxpool4): MaxPool2d(kernel_size=[1, 2], stride=[1, 2], padding=[0, 0], dilation=1, ceil_mode=False)
  (dropout4): Dropout2d(p=0.2, inplace=False)
  (cnn5): Conv2d(64, 64, kernel_size=[3, 3], stride=[1, 1], padding=[1, 1])
  (relu5): ReLU()
  (bn5): BatchNorm2d(64, eps=1e-05, momentum=0.1, affine=True, track_running_stats=True)
  (maxpool5): MaxPool2d(kernel_size=[1, 2], stride=[1, 2], padding=[0, 0], dilation=1, ceil_mode=False)
  (dropout5): Dropout2d(p=0.2, inplace=False)
  (flatten): Flatten()
  (linear1): Linear(in_features=13760, out_features=1024, bias=True)
  (relu6): ReLU()
  (bn6): BatchNorm1d(1024, eps=1e-05, momentum=0.1, affine=True, track_running_stats=True)
  (droupout6): Dropout(p=0.4, inplace=False)
  (linear2): Linear(in_features=1024, out_features=128, bias=True)
  (relu7): ReLU()
  (bn7): BatchNorm1d(128, eps=1e-05, momentum=0.1, affine=True, track_running_stats=True)
  (droupout7): Dropout(p=0.4, inplace=False)
  (linear3): Linear(in_features=128, out_features=5, bias=True)
  (softmax): Softmax(dim=1)
)


====================================================================================================================
Epoch :   0
100% 58/58 [00:20<00:00, 3.74it/s]
Iteration : 10/2869 [ 0%] 
[Train]  Loss: 1.63  Accuracy: 21.88
[Test ]  Loss: 1.61  Accuracy: 4.69
=========================================================
Iteration : 20/2869 [ 1%] 
…
